model.pth (torch, 16799 bytes, 4 tensors)

linear1.weight f4 [256, 11]
0	0xbe37b10e	-0.17938635
1	0x3f301e87	0.6879658
2	0x3f495195	0.7864011
3	0xbf22501a	-0.63403475
4	0xbecdecb6	-0.4021966
5	0x3e945933	0.28974304
6	0x3c51eebf	0.012813269
7	0xbbf8291a	-0.007573259
8	0xbe459229	-0.19294037
9	0xbe2b1971	-0.16708924
10	0xbea12f41	-0.31481364
11	0x3e4df6f5	0.20113738
12	0x3d42744f	0.0474742
13	0xbdf47654	-0.11936632
14	0x3e9061cd	0.28199616
15	0x3daf258e	0.08552085
16	0xbe968883	-0.29401025
17	0xbd885a8a	-0.06657894
18	0xbf06aed1	-0.526105
19	0xbf0851f1	-0.5325003
20	0x3e1a60b3	0.1507595
21	0xbd389820	-0.045066953
22	0xbdb7d042	-0.08975269
23	0xbed69fd1	-0.41918805
24	0xbef6acdd	-0.4817876
25	0xbe79a371	-0.24378754
26	0x3e6bce04	0.23027807
27	0x3b8ff502	0.004393221
28	0xbe13e7db	-0.14443915
29	0x3e01bdf5	0.12670119
30	0xbde8e6c1	-0.11372138
31	0xbed7b7bb	-0.42132363
32	0xbe700b5c	-0.23441833
33	0xbec0f00e	-0.37683147
34	0x3ec58be8	0.38583302
35	0xbec2f552	-0.3807779
36	0xbe2bbe50	-0.16771817
37	0xbec0b075	-0.37634626
38	0xbe5fc9d6	-0.21854338
39	0x3f1939db	0.59853905
40	0x3ec8afc0	0.39196587
41	0xbee8d797	-0.45476982
42	0x3edc619f	0.4304323
43	0xbea5430c	-0.32277715
44	0x3ecf445e	0.40481848
45	0x3db8fd33	0.09032669
46	0x3c2f0150	0.010681465
47	0x3ea3a6c6	0.31963176
48	0xbedc2777	-0.4299886
49	0x3e5a4425	0.21315058
50	0xbdef3106	-0.11679272
51	0xbd8e389f	-0.06944393
52	0x3f26b514	0.65120053
53	0xbda01e03	-0.07818224
54	0x3eb4f6fd	0.35344687
55	0x3e3c1848	0.18368638
56	0x3e1366b3	0.14394645
57	0x3e52a5b9	0.2057103
58	0xbedaed17	-0.4275901
59	0x3e9c099d	0.30476084
60	0xbe42c8ca	-0.19021907
61	0xbeea2651	-0.45732358
62	0x3ef25315	0.47329012
63	0xbe86800b	-0.26269564
64	0x3e1831f8	0.14862812
65	0xbe57d758	-0.21078241
66	0x3e16af81	0.14715387
67	0xbe38ba22	-0.18039754
68	0x3c959d72	0.018263552
69	0xbe46c836	-0.19412312
70	0xbe84b8b6	-0.25922173
71	0xbe8b3681	-0.2719002
72	0xbea59ec6	-0.32347697
73	0x3e20b759	0.15694942
74	0xbcc95f55	-0.02458159
75	0x3e30ab5b	0.17252867
76	0xbe27bb2c	-0.16379994
77	0xbbdcf732	-0.006743335
78	0xbe352b74	-0.17692357
79	0x3d54c557	0.05194601
80	0xbe4a7920	-0.19772768
81	0xbca7672b	-0.020434937
82	0x3dcd5750	0.10026419
83	0xbe2df637	-0.16988455
84	0xbe69a99a	-0.22818604
85	0xbabd2d86	-0.0014433123
86	0xbdbf9866	-0.093552396
87	0xbe600417	-0.2187656
88	0x3f02e939	0.5113712
89	0x3e0b7162	0.13617471
90	0x3dae570b	0.08512696
91	0xbeb3fbed	-0.35153142
92	0xbe3b6459	-0.18299998
93	0xbebc427f	-0.36769482
94	0xbdd9784b	-0.10618647
95	0x3f13da3e	0.57754886
96	0x3ecf9a63	0.40547475
97	0x3f0ec534	0.5576966
98	0x3ea52e28	0.32261777
99	0x3d978abb	0.073995076
100	0xbe4a98ca	-0.19784847
101	0xbdede486	-0.11615853
102	0xbe8dd4cc	-0.27701414
103	0xbeb1ae5c	-0.34703338
104	0xbecee8e8	-0.40412068
105	0x3c25e5e5	0.010125612
106	0x3e004efe	0.12530133
107	0x3e40bbc4	0.18821627
108	0x3e548b88	0.20756352
109	0xbea64f02	-0.32482153
110	0xbecc4067	-0.39892885
111	0x3e062d43	0.13103203
112	0x3e964095	0.29346147
113	0xbdb35352	-0.087561265
114	0x3e312f1a	0.17303124
115	0xbe968e1e	-0.29405302
116	0x3e5c7b7d	0.21531482
117	0x3ccd27be	0.025043365
118	0xbed8c4e6	-0.42337722
119	0xbc7a58eb	-0.015279989
120	0xbe814ce2	-0.2525397
121	0x3f1ce1b5	0.612819
122	0x3c9c6633	0.019091701
123	0x3df9bfec	0.12194809
124	0x3ea7ea86	0.32796115
125	0x3e97b567	0.29630587
126	0xbdf09792	-0.1174766
127	0x3e988ebc	0.29796398
128	0xbf49b036	-0.787845
129	0xbedd706c	-0.43249834
130	0x3dc99d51	0.09844459
131	0xbec4c059	-0.38428
132	0x3e473a31	0.19455792
133	0x3cc47494	0.02398137
134	0x3cb35219	0.021889733
135	0xbebba4a0	-0.36649036
136	0xbcc4819b	-0.023987582
137	0xbeb6926f	-0.35658595
138	0x3cc20dce	0.023688223
139	0x3f2c4246	0.67288625
140	0x3ea83eff	0.32860562
141	0x3f31434e	0.69243324
142	0x3ece8fac	0.40343988
143	0xbe303847	-0.17208968
144	0xbeba98a8	-0.36444592
145	0x3e908863	0.28229055
146	0xbeb8c329	-0.36086395
147	0x3e9c676a	0.3054765
148	0xbe4c1bf1	-0.19932534
149	0x3e7e3207	0.24823771
150	0x3e10b101	0.14130022
151	0xbf3cd130	-0.73756695
152	0xbf1c7bde	-0.61126506
153	0x3e315ff3	0.17321758
154	0xbe9e5412	-0.30923516
155	0x3dbfd768	0.09367257
156	0x3df00322	0.117193475
157	0x3e9d7bfb	0.30758652
158	0x3e95b8cc	0.2924255
159	0x3d6ebf65	0.058287997
160	0x3e10b043	0.14129739
161	0xbe80c14a	-0.25147468
162	0xbe36d917	-0.1785625
163	0xbeb91733	-0.36150512
164	0xbed981f2	-0.42481953
165	0x3f190143	0.5976755
166	0xbdd521e2	-0.10406853
167	0x3de5b969	0.11217005
168	0x3eccbdb9	0.39988497
169	0xbea73cad	-0.3266348
170	0xbeafc31b	-0.3432854
171	0x3e78d6df	0.24300717
172	0xbe55614a	-0.20837894
173	0x3f1a5cae	0.6029767
174	0x3f0e0ca1	0.5548802
175	0xbe1b6aed	-0.15177508
176	0x3e9a2174	0.30103648
177	0x3e82670a	0.25469238
178	0xbd9e0625	-0.07716016
179	0xbf017879	-0.5057445
180	0x3eb08015	0.3447272
181	0x3ef3e25d	0.4763364
182	0xbe0ae068	-0.13562167
183	0x3ee2085a	0.44146997
184	0xbf834277	-1.0254658
185	0xbefa5ab4	-0.48897326
186	0xbdc8dbf0	-0.09807575
187	0x3e4634b4	0.19356042
188	0xbef4409b	-0.4770554
189	0xbd98a8b3	-0.07454052
190	0x3ef810e0	0.48450375
191	0xbe877157	-0.2645366
192	0xbe2e5f12	-0.17028454
193	0x3f157b94	0.5839169
194	0xbe8ee586	-0.27909487
195	0xbeec0a1b	-0.4610146
196	0x3ee5ac8f	0.44858214
197	0xbea2fe15	-0.31834474
198	0xbe350f43	-0.17681603
199	0x3df4c8a4	0.11952332
200	0xbe67d431	-0.22639538
201	0xbd5a41eb	-0.05328552
202	0xbeb53ce3	-0.35398015
203	0x3d0f7493	0.035023283
204	0xbdab886c	-0.0837563
205	0xbe6b61c8	-0.2298652
206	0xbdbabaf7	-0.09117692
207	0xbdca5a83	-0.09880545
208	0x3dea9f3e	0.11456154
209	0xbe459820	-0.19296312
210	0x3da85695	0.08219639
211	0xbd5d6aa9	-0.054056797
212	0xbeeed11e	-0.4664392
213	0x3edb7aa6	0.4286701
214	0xbeb70f3a	-0.35753804
215	0xbede075f	-0.43365
216	0xbe9572c9	-0.29189137
217	0x3f0d6dfd	0.55245954
218	0xbf0b66ad	-0.54453546
219	0xbf03f225	-0.5154136
220	0xbe2dd3c3	-0.16975312
221	0xbdf0f760	-0.11765933
222	0xbd54f018	-0.051986784
223	0xbe612713	-0.21987562
224	0xbb00d26c	-0.0019656671
225	0x3f0fa62c	0.56112933
226	0xbe43bb5a	-0.19114438
227	0xbe61450d	-0.21998997
228	0xbf283ba9	-0.65716034
229	0xbe3206d9	-0.17385425
230	0x3f0a71cb	0.54079884
231	0x3e2f59db	0.17124121
232	0xbe023dbd	-0.12718864
233	0x3e1944a0	0.14967585
234	0x3dbc257e	0.091868386
235	0xbe9a33d6	-0.30117673
236	0x3d91f6fe	0.07127188
237	0xbeafcba8	-0.34335065
238	0x3e904a92	0.28181893
239	0x3f13de54	0.5776112
240	0x3e93f819	0.2890022
241	0x3f19859b	0.5996949
242	0xbe3a393a	-0.18185893
243	0x3e4eb591	0.2018645
244	0xbe83b425	-0.25723377
245	0x3ef43ea1	0.47704032
246	0xbe860f78	-0.26183677
247	0xbe13c640	-0.14431095
248	0x3c8406cc	0.016116522
249	0xbeb71b2a	-0.35762912
250	0x3eab17e3	0.33416662
251	0x3e2c6849	0.16836657
252	0xbf287652	-0.6580554
253	0x3f1c90de	0.6115855
254	0x3e70fcc8	0.23533928
255	0xbe591ca3	-0.2120233

linear1.bias f4 [256]
0	0x3d0b65ff	0.034032818
1	0xbdad24b0	-0.08454263
2	0xbeb6e276	-0.3571965
3	0xbe78b47c	-0.242876
4	0xbe8e680f	-0.27813765
5	0xbe6d0e14	-0.23149902
6	0xbeafc7e5	-0.34332195
7	0xbe2eaf03	-0.17058949
8	0xbe6f0284	-0.23340803
9	0xbea65e18	-0.32493663
10	0xbe5dc29d	-0.2165627
11	0xbceb9e79	-0.02876209
12	0xbeb48c82	-0.3526345
13	0x3dd15340	0.10220957
14	0x3f423c93	0.7587368
15	0xbe9867e5	-0.29766765
16	0xbd0590e8	-0.032608896
17	0xbe6c8a57	-0.23099647
18	0xbe30e454	-0.172746
19	0xbe434d96	-0.19072565
20	0xbeaab5f0	-0.33341932
21	0xbed1bd0c	-0.40964544
22	0xbe0a877f	-0.1352825
23	0xbda20fbd	-0.07913158
24	0xbe9ca36f	-0.3059344
25	0xbcaf8268	-0.021424487
26	0xbe97472b	-0.29546484
27	0xbe2d81b9	-0.16944017
28	0xbf29c167	-0.66310734
29	0xbdd9c59f	-0.10633396
30	0xbe8e681c	-0.27813804
31	0xbe9c4a3f	-0.30525395
32	0xbd8b5f9a	-0.06805344
33	0xbdfc2e95	-0.12313572
34	0x3c5a21ec	0.013313752
35	0xbe5d362c	-0.21602696
36	0xbd0fdc06	-0.03512194
37	0xbe04a71c	-0.12954372
38	0xbed53457	-0.41641495
39	0xbe2a5b0d	-0.16636296
40	0x3cd91315	0.026498357
41	0xbd8220fe	-0.06353949
42	0xbd3a9ffd	-0.045562733
43	0xbe140388	-0.14454472
44	0xbe743cea	-0.23851362
45	0xbe95207f	-0.29126355
46	0x3db0c4d6	0.086312935
47	0x3f124b4e	0.57146156
48	0xbf0b307f	-0.54370874
49	0x3e4c8fb4	0.19976693
50	0xbe8e679e	-0.2781343
51	0x3adb39b8	0.0016725576
52	0xbedb0c7e	-0.42782968
53	0x3d963bdb	0.07335635
54	0xbd9abcb8	-0.075555265
55	0xbefcec08	-0.49398828
56	0xbe0f656b	-0.14003532
57	0xbe49faf3	-0.19724636
58	0x3e099d2c	0.13438863
59	0xbe67a5e0	-0.2262187
60	0xbf18b4f5	-0.5965112
61	0xbe85bd39	-0.26120928
62	0xbdbb2e56	-0.09139697
63	0x3f1982ef	0.59965414
64	0x3df21044	0.11819509
65	0xbdef3bd5	-0.11681334
66	0x3e0cbfbd	0.13745017
67	0xbefb73eb	-0.49111876
68	0x3d57bb5f	0.052668925
69	0xbeabad7b	-0.33530793
70	0xbc750e35	-0.0149570005
71	0xbeb3f0a2	-0.35144526
72	0x3bf5d03c	0.00750163
73	0xbe9eae94	-0.30992568
74	0x3e041ef1	0.12902428
75	0x3ef3c1a3	0.4760867
76	0xbdc25438	-0.0948872
77	0xbdddb349	-0.108252116
78	0xbe68f2f1	-0.22748925
79	0x3e3bcaaf	0.18339036
80	0xbe9bd94f	-0.3043923
81	0xbe70f624	-0.23531395
82	0x3e3859cd	0.18003006
83	0x3ebf3537	0.37345287
84	0xbe90337f	-0.28164288
85	0x3ee72a2c	0.45149362
86	0xbee9363f	-0.455492
87	0xbe272f90	-0.16326737
88	0x3e97e91d	0.2967004
89	0xbeca4108	-0.3950274
90	0x3f3e55ef	0.74349874
91	0xbec7fefb	-0.39061722
92	0xbdeeda37	-0.11662715
93	0x3eb15b4a	0.3463996
94	0xbde30307	-0.11084562
95	0xbd490752	-0.049079247
96	0xbe5be36f	-0.21473478
97	0x3e1dd755	0.15414174
98	0xbed7fad5	-0.42183557
99	0xbd83f31f	-0.06442856
100	0xbe8f70cb	-0.28015742
101	0xbe046a29	-0.12931122
102	0x3cbf6f70	0.023368567
103	0xbbb3ab71	-0.005483084
104	0xbeaf2b31	-0.3421264
105	0x3e26cdf8	0.16289508
106	0x3e4e6dec	0.2015912
107	0xbeb432fd	-0.3519515
108	0xbeba162c	-0.3634504
109	0x3e15e528	0.14638197
110	0xbe90ec4a	-0.28305274
111	0xbba19b6b	-0.0049318573
112	0xbe243bdd	-0.16038461
113	0x3e1c9574	0.15291387
114	0x3e36c0a4	0.17846924
115	0xbe9cb099	-0.30603483
116	0xbe1dfd0a	-0.15428558
117	0xbeb5466c	-0.3540529
118	0xbf05aa77	-0.52213234
119	0xbe348381	-0.1762829
120	0x3e9c3623	0.30510053
121	0xbe8ebdab	-0.2787908
122	0x3f0e71f1	0.5564261
123	0xbb6c4644	-0.0036052624
124	0xbe814b3a	-0.25252706
125	0x3ef3b653	0.4760004
126	0x3f12afd0	0.5729952
127	0xbeab5af0	-0.33467817
128	0xbe0360dd	-0.12829919
129	0xbeebb6c5	-0.4603788
130	0xbdcfde7d	-0.10149858
131	0xbeecb0c0	-0.462286
132	0xbea0efb0	-0.31432867
133	0x3d1aa392	0.03775365
134	0xbeba8db2	-0.3643623
135	0xbe030044	-0.1279307
136	0xbdbe4cdc	-0.092920035
137	0x3d5f4111	0.05450541
138	0xbe0a3f22	-0.13500646
139	0xbe8cc83b	-0.27496514
140	0xbd44176d	-0.047873903
141	0xbebfee14	-0.37486327
142	0xbd8a94d8	-0.06766671
143	0x3dd5d513	0.10441031
144	0xbe3b6905	-0.1830178
145	0xbf13bab3	-0.57706755
146	0xbf329468	-0.697577
147	0x3d413372	0.047168203
148	0x3ee467d9	0.4461048
149	0xbdc0c8ef	-0.09413325
150	0x3dbda4cc	0.09259948
151	0xbe8107d6	-0.2520129
152	0xbef89388	-0.48550057
153	0xbe8ad308	-0.2711413
154	0xbe9f7584	-0.31144345
155	0xbeefde04	-0.46849072
156	0xbe63a982	-0.22232631
157	0xbeb174b6	-0.34659356
158	0x3e4e6a05	0.2015763
159	0xbe1d7278	-0.15375698
160	0xbe2151c1	-0.15753843
161	0xbe087452	-0.13325623
162	0xbe2f4077	-0.17114435
163	0xbe8967de	-0.26837057
164	0xbdb768b5	-0.08955518
165	0xbe3f718f	-0.18695663
166	0xbea74824	-0.32672226
167	0x3e60a48b	0.21937768
168	0xbea349b3	-0.31892166
169	0xbe0dcad2	-0.13846901
170	0xbea9c056	-0.33154553
171	0xbf0b68ae	-0.54456604
172	0xbd50f7e5	-0.05101766
173	0xbe93b57f	-0.28849408
174	0x3d904887	0.070450835
175	0xbe2b3a32	-0.16721418
176	0xbed29973	-0.41132697
177	0xbecd16b1	-0.40056375
178	0x3d3cff61	0.046141986
179	0x3e25e067	0.16198884
180	0xbed52358	-0.41628528
181	0xbc95b2c7	-0.018273724
182	0xbe932104	-0.28736126
183	0xbdc35674	-0.09537974
184	0xbeaffa22	-0.34370524
185	0xbd8827f0	-0.066482425
186	0xbe9de349	-0.30837467
187	0xbe19e597	-0.15028988
188	0xbce485ef	-0.027895896
189	0xbe68b509	-0.2272531
190	0xbef7d771	-0.48406556
191	0xbe8e4ce2	-0.27793032
192	0xbe79e8f0	-0.24405265
193	0xbe5c91b6	-0.2153996
194	0xbe9286e5	-0.2861854
195	0xbe79cd87	-0.24394809
196	0xbe681302	-0.22663501
197	0x3dc2a070	0.09503257
198	0xbef23ca4	-0.4731189
199	0xbef58fcd	-0.47961274
200	0x3ec7f811	0.39056447
201	0xbe241404	-0.1602326
202	0x3dd0c855	0.1019446
203	0xbecc0dde	-0.3985433
204	0xbcb2e464	-0.02183742
205	0xbf083d52	-0.5321857
206	0xbd6a9cbc	-0.05727838
207	0xbe558e3d	-0.20855041
208	0xbeb3e907	-0.35138723
209	0xbf041559	-0.51595074
210	0xbe24dba8	-0.16099417
211	0xbd08df1f	-0.03341591
212	0x3df92dc0	0.12166929
213	0xbeac1632	-0.33610684
214	0xbead2936	-0.33820504
215	0xbd8d5859	-0.069016166
216	0xbee8f303	-0.45497903
217	0xbeeb09cd	-0.45905915
218	0xbe600493	-0.21876745
219	0xbd9cf41e	-0.07663749
220	0xbf109191	-0.56472117
221	0xbe87675f	-0.26446053
222	0x3d0fd327	0.03511348
223	0xbeaa930f	-0.33315322
224	0xbe8c78e4	-0.27435982
225	0x3e6a9bff	0.2291107
226	0xbec0d537	-0.3766267
227	0xbdd2e058	-0.102966964
228	0xbea2a0a3	-0.3176318
229	0x3d131529	0.03590885
230	0xbeb2ebb4	-0.34945452
231	0xbeaad096	-0.33362263
232	0xbebcabbb	-0.3684977
233	0x3d63806c	0.055542395
234	0x3ab578db	0.0013845222
235	0xbd8b1f22	-0.067930475
236	0xbd0bc28c	-0.03412108
237	0x3ef1923f	0.4718189
238	0xbd640b28	-0.055674702
239	0x3c67865f	0.014131158
240	0xbe6cc06a	-0.23120275
241	0xbe8618e1	-0.26190856
242	0x3ee5f314	0.44912016
243	0x3ca439e8	0.020047143
244	0x3e5d2480	0.21595955
245	0xbf004130	-0.5009947
246	0xbe80bc3a	-0.25143605
247	0x3d49b9dc	0.049249515
248	0xbe9aff79	-0.30273035
249	0xbc7fd486	-0.015614634
250	0xbd6bc71d	-0.057562936
251	0x3d9f7f43	0.07787945
252	0x3eaa36f7	0.3324506
253	0xbe9a1145	-0.300913
254	0xbe79a098	-0.24377668
255	0xbeb4a4c4	-0.35281956

linear2.weight f4 [3, 256]
0	0x3d4fe72e	0.05075758
1	0x3ff1ebea	1.890012
2	0xbd1eaa2d	-0.03873651
3	0xbe86011b	-0.26172718
4	0xbe9eb39a	-0.309964
5	0xbe05ecb6	-0.1307858
6	0x3d5844b6	0.052799903
7	0xbda4c398	-0.08045119
8	0xbe933684	-0.2875253
9	0x3ea0d7f6	0.31414765
10	0xbd546bd5	-0.05186065
11	0xbee7a9e2	-0.45246798
12	0xbe8ea8de	-0.2786321
13	0xbc2b7e4e	-0.010467125
14	0x3e826eb1	0.25475076
15	0xbf1ea9a0	-0.6197758
16	0xbf3ca20b	-0.7368476
17	0xbec37907	-0.38178274
18	0xbb984c50	-0.004647769
19	0x3ea012d5	0.31264368
20	0xbdefe33a	-0.11713262
21	0xbe5c9dad	-0.21544524
22	0xbe81e538	-0.25370193
23	0xbf348a7f	-0.7052383
24	0xbba15acb	-0.0049241534
25	0x3c8adf3f	0.016952155
26	0xbc3ab9aa	-0.011396805
27	0xbc2fb6e4	-0.010724757
28	0x3f8d6555	1.1046549
29	0xbec05687	-0.37566015
30	0xbd0cf76c	-0.034415647
31	0x3cb470a1	0.022026362
32	0x3c6c2d24	0.014415059
33	0xbc366aa8	-0.011133827
34	0x3ecb085e	0.3965482
35	0x3d17198e	0.036889605
36	0x3e2e19c5	0.17002018
37	0x3d115f3d	0.035491217
38	0x3d884422	0.0665362
39	0xbc8aff6d	-0.0169675
40	0x3c7f5b42	0.015585722
41	0x3e400b0b	0.18754213
42	0xbda33718	-0.07969493
43	0xbe5f61c1	-0.21814634
44	0xbd7e92e6	-0.062151812
45	0xbe2f7df9	-0.17137899
46	0xbe13514f	-0.14386486
47	0x3f2bc3cf	0.67095655
48	0x3e8c07cf	0.27349707
49	0x3d9813b1	0.07425631
50	0xbe04c6e5	-0.12966497
51	0x3e95c1a0	0.29249287
52	0x3e4c007a	0.19922057
53	0x3ea2ab3d	0.3177127
54	0xbe85bbb7	-0.26119778
55	0x3cb022f4	0.021501042
56	0xbe6ff239	-0.23432244
57	0xbe43eee6	-0.19134101
58	0x3d80adb5	0.06283132
59	0xbd074129	-0.033021126
60	0x3ea723a3	0.32644376
61	0xbe9345c3	-0.2876416
62	0xbd8b07f0	-0.06788623
63	0x3e9dcaa6	0.3081867
64	0x3f0b308a	0.5437094
65	0xbe5a005b	-0.21289198
66	0x3d19661b	0.03745089
67	0xbeb13126	-0.3460781
68	0x3e70e8b9	0.23526277
69	0x3e211512	0.15730694
70	0x3f044adb	0.5167672
71	0xbb46c04c	-0.003032702
72	0x3ec0e021	0.37670997
73	0x3c17049b	0.009217407
74	0x3df02971	0.11726654
75	0x3edcf9b3	0.43159255
76	0xbd9c41c4	-0.07629731
77	0xbf048fa4	-0.5178168
78	0xbe497b56	-0.19675955
79	0xbd2622ea	-0.04056064
80	0xbce5a2c6	-0.028031718
81	0x3bc8fe13	0.0061338036
82	0xbe9f33d8	-0.3109424
83	0x3e98b825	0.2982799
84	0xbed73dba	-0.4203928
85	0x3e2dbae2	0.16965821
86	0xbe53dfb0	-0.20690799
87	0xbe493152	-0.1964772
88	0x3ea6a2a3	0.32545957
89	0xbc99eb9e	-0.018789109
90	0x3ed02959	0.40656546
91	0x3de6cef3	0.11269941
92	0xbdee0b00	-0.11623192
93	0x3f0e2003	0.55517596
94	0xbf1ee6ce	-0.6207093
95	0xbeb44faa	-0.3521703
96	0xbcff8fb4	-0.031196453
97	0x3d38f524	0.04515566
98	0x3f5b57d2	0.8568088
99	0xbe862194	-0.26197493
100	0x3d6c527c	0.05769585
101	0xbf1b3b25	-0.6063712
102	0x3ea9b872	0.33148533
103	0xbe1a3d8b	-0.1506254
104	0x3cdbcbec	0.026830636
105	0x3ebdcdc7	0.37071058
106	0x3e9ddf03	0.30834207
107	0xbb06c175	-0.0020562087
108	0x3bed35e8	0.007239092
109	0xbea9a7ae	-0.33135742
110	0xbabe9933	-0.0014541507
111	0xbdcd6e27	-0.100307755
112	0xbd42c2e4	-0.047549143
113	0x3dd1b8a1	0.10240293
114	0x3ec1d1d1	0.3785539
115	0xbcb0da7e	-0.02158856
116	0xbecdbee1	-0.40184692
117	0xbbd27801	-0.006422997
118	0xbe60d751	-0.21957137
119	0xbc72e140	-0.014824212
120	0x3e9d36e4	0.3070594
121	0xbecf594b	-0.40497813
122	0x3e741c68	0.23838961
123	0xbea16e17	-0.31529304
124	0x3d7444e8	0.059636027
125	0x3f037776	0.5135416
126	0x3ea4e8fe	0.3220901
127	0x3ce4db01	0.02793646
128	0x3d91db45	0.071219005
129	0x3d381223	0.04493917
130	0xbd9c4433	-0.076301955
131	0x3e23f2d2	0.16010597
132	0x3deb8269	0.11499483
133	0x3c697152	0.014248209
134	0xbd333a20	-0.043756604
135	0x3e900954	0.28132117
136	0x3db3daa6	0.08781938
137	0xbe88b2d4	-0.26698935
138	0xbc72be7f	-0.014815926
139	0xbd13ac17	-0.03605279
140	0x3e41afcc	0.18914717
141	0xbbaa3012	-0.0051937187
142	0x3c6d771d	0.014493731
143	0x3c596548	0.013268776
144	0x3e9e4ba3	0.3091708
145	0xbcee2efe	-0.029075142
146	0x3c023fad	0.007949752
147	0xbe12c9c9	-0.14334787
148	0x3e8dfea7	0.27733347
149	0xbde76c3c	-0.11299941
150	0x3f12e2d3	0.57377356
151	0x3e578cd0	0.2104981
152	0xbe91ddf5	-0.28489652
153	0xbc825e92	-0.015914235
154	0x3949dc44	0.00019250909
155	0xbea7ba29	-0.32759216
156	0xbe95434d	-0.2915291
157	0x3de36831	0.11103857
158	0xbe7b81ce	-0.24561235
159	0xbeef5f8c	-0.46752584
160	0x3d589479	0.05287597
161	0x3ca7204a	0.020401139
162	0xbda0b91f	-0.07847809
163	0xbcc9af24	-0.024619646
164	0x3e3cbade	0.18430659
165	0x3d28085c	0.041023597
166	0xbd28bd74	-0.0411963
167	0x3c1b0244	0.009460989
168	0x3f8afca8	1.0858355
169	0x3b9144b1	0.0044332375
170	0x3bdc55a5	0.006724077
171	0x3f435540	0.76301956
172	0xbed1ff2c	-0.41014993
173	0xbd36a726	-0.044593
174	0x3f12557a	0.57161677
175	0xbeabb2f3	-0.33534965
176	0xbeaf7b9d	-0.34273997
177	0xbc6c2263	-0.014412495
178	0x3e895241	0.26820567
179	0x3c0f0afd	0.008730647
180	0xbe947a1b	-0.2899941
181	0x3b2d5f94	0.0026454674
182	0x3c8cdc16	0.017194789
183	0x3d6d341a	0.057911016
184	0xbc642597	-0.013924978
185	0xbec5323d	-0.3851489
186	0xbe82a57b	-0.25516877
187	0xbeb3aaaa	-0.35091144
188	0xbb93db04	-0.0045121927
189	0xbe5b68ac	-0.21426648
190	0x3e8d92a0	0.27650928
191	0xbe22c469	-0.15895237
192	0x3d482eed	0.048872877
193	0xbe590b20	-0.2119565
194	0xbe46a276	-0.19397911
195	0xbe3e13f6	-0.18562302
196	0xbf21b25b	-0.63162774
197	0x3dda3635	0.106548704
198	0xbc81d19d	-0.015847022
199	0xbe9a4d6a	-0.30137187
200	0x3e1f50eb	0.15558212
201	0xbf3096b2	-0.6897994
202	0x3f122901	0.57093817
203	0x3cba5f77	0.0227506
204	0xbc4f6049	-0.0126572335
205	0x3dfcafdb	0.12338229
206	0x3e3a13da	0.18171635
207	0x3dbb0927	0.09132605
208	0x3cfd8e9b	0.030951789
209	0x3db37733	0.0876297
210	0x3ea20e97	0.31651756
211	0xbf05cfd3	-0.5227024
212	0x3e98000c	0.29687536
213	0xbde0940d	-0.109657384
214	0xbd24a06e	-0.04019206
215	0xba2883c4	-0.0006428326
216	0x3daa4559	0.08314008
217	0x3fd8e5fc	1.6945186
218	0xbe4dcf57	-0.20098625
219	0xbed3ecce	-0.41391605
220	0xbe53d2e0	-0.20685911
221	0x3c0c0e53	0.008548337
222	0x3ea1caf6	0.3160016
223	0x3f8fdb66	1.123883
224	0x3c93e980	0.018055677
225	0x3d4a6eea	0.049422182
226	0x3d1c6556	0.03818258
227	0xbf21f564	-0.6326506
228	0xbd402776	-0.046912633
229	0x3e60bed8	0.21947801
230	0xbe350590	-0.17677903
231	0x3ce02e1c	0.027365737
232	0x3c94bd17	0.018156571
233	0x3eb84b5e	0.35995
234	0x3e49c3ad	0.1970355
235	0xbccf762c	-0.025324903
236	0x3e803259	0.25038412
237	0x3dbe230e	0.0928403
238	0x3cafb85a	0.02145021
239	0x3e43a263	0.19104914
240	0xbd90aeea	-0.07064612
241	0xbc9d8ff1	-0.019233676
242	0x3f0ffeac	0.56247973
243	0xbeda2459	-0.42605856
244	0x3e00924f	0.12555812
245	0xbd5bc1cb	-0.053651612
246	0xbe11097e	-0.14163777
247	0xbcb69542	-0.022287969
248	0x3f57d248	0.8430524
249	0xbddbaec1	-0.10726691
250	0xbe19eaee	-0.15031025
251	0x3f21dbc2	0.6322595
252	0x3e976f02	0.2957688
253	0x3c927279	0.01787685
254	0xbc200f32	-0.009769248
255	0xbe769372	-0.24079683

linear2.bias f4 [3]
0	0x3f0571e6	0.5212692
1	0xbe428293	-0.18995123
2	0xbdb290f0	-0.08719051
