model.pt (torch, 21312 bytes, 4 tensors)

weight f4 [256, 11]
000000 8f ef 5e be 8e 3c 02 3f 40 63 95 3f 5f d0 53 bf
       -0.21771072 0.5087365 1.1670914 -0.82739824
000010 72 b0 41 bf 02 4f c2 3e df df 43 3e 3f 98 f2 3d
       -0.7565986 0.37950903 0.19128369 0.11845445
000020 99 c8 af 3d 16 83 e9 3c 58 30 96 bd 9f 08 1c 3f
       0.08583183 0.02850489 -0.073334396 0.60950655
000030 92 4d 62 3d 60 3f ed bd 23 f8 df 3e b2 8c cb 3e
       0.055249758 -0.115843534 0.43744 0.3975578
000040 e8 ba ac be e8 75 29 3d 7a 29 b1 be fc 96 1f be
       -0.33736348 0.04137221 -0.34601957 -0.1558494
000050 93 0a a1 3e ff 1a 9c 3e 42 d0 b7 bd d1 9f d6 be
       0.3145338 0.30489346 -0.08975269 -0.41918805
000060 dd ac f6 be 71 a3 79 be 04 ce 6b 3e 02 f5 8f 3b
       -0.4817876 -0.24378754 0.23027807 0.004393221
000070 db e7 13 be f5 bd 01 3e c1 e6 e8 bd bb b7 d7 be
       -0.14443915 0.12670119 -0.11372138 -0.42132363
000080 5c 0b 70 be cc 4d 4b bf 95 5b b6 3c 28 d9 75 bf
       -0.23441833 -0.79415584 0.022260467 -0.9603448
000090 40 36 17 3e 60 fb 3d bf 9b 9f b0 be 22 04 86 3f
       0.14766788 -0.7421169 -0.3449677 1.0470011
0000a0 14 02 ee 3e 79 a6 7d bf 81 0f 3d 3f 79 76 c0 be
       0.4648596 -0.9908214 0.7385178 -0.37590387
0000b0 91 ca 6a 3e f0 1d 99 3e 6a 64 a8 3e e6 e0 e1 3e
       0.22928835 0.29905653 0.3288911 0.44116896
0000c0 54 99 09 bf 24 f4 84 3e bc 4b 3f be b3 ef 85 bc
       -0.53749585 0.25967515 -0.18681234 -0.016349649
0000d0 a8 41 4e 3f 03 91 17 3d 03 a0 0e 3f c7 37 73 3e
       0.80568933 0.03700353 0.5571291 0.23751746
0000e0 d0 25 90 3e 4b a0 2b 3e 65 65 ce be 00 07 fe 3e
       0.2815385 0.16760366 -0.40311733 0.49614716
0000f0 35 af 89 bc 78 a5 c8 be 84 a1 bd 3e b8 0c d0 bd
       -0.016807178 -0.39188743 0.3703729 -0.10158676
000100 6b e9 47 3d 54 1c 38 bd 81 af 16 3e 22 ba 38 be
       0.04880659 -0.04494889 0.14715387 -0.18039754
000110 72 9d 95 3c 36 c8 46 be b6 b8 84 be 81 36 8b be
       0.018263552 -0.19412312 -0.25922173 -0.2719002
000120 c6 9e a5 be 59 b7 20 3e 55 5f c9 bc 5b ab 30 3e
       -0.32347697 0.15694942 -0.02458159 0.17252867
000130 2c bb 27 be 32 f7 dc bb 74 2b 35 be 57 c5 54 3d
       -0.16379994 -0.006743335 -0.17692357 0.05194601
000140 20 79 4a be 2b 67 a7 bc 50 57 cd 3d 37 f6 2d be
       -0.19772768 -0.020434937 0.10026419 -0.16988455
000150 9a a9 69 be 86 2d bd ba 66 98 bf bd 17 04 60 be
       -0.22818604 -0.0014433123 -0.093552396 -0.2187656
000160 21 b3 89 3f 18 2e 1c 3e 90 21 1b bc 11 13 35 bf
       1.0757791 0.15251958 -0.009468451 -0.7073222
000170 31 84 c4 be e3 73 0f bf a3 07 74 be 28 26 37 3f
       -0.38382104 -0.56036204 -0.23831038 0.71542597
000180 19 2a 05 3f 7f 49 26 3f 9d 96 00 3f 85 66 06 3e
       0.5201736 0.64955896 0.5022982 0.13125046
000190 e0 5c 55 be 64 0e 71 bd ec bb 44 be 57 3a e1 be
       -0.2083621 -0.058851615 -0.19212312 -0.43989822
0001a0 c3 5e c5 be d8 74 3f bd 3c 94 49 3e 59 70 22 3e
       -0.3854886 -0.04674229 0.19685453 0.1586317
0001b0 73 21 51 3e 02 4f a6 be ec 7b 33 bd 25 85 de 3e
       0.20422916 -0.32482153 -0.043819353 0.43460956
0001c0 19 95 a8 3e 4a 58 6a 3e ee 10 6a 3e 2f 5c e6 3d
       0.32926252 0.22885242 0.2285802 0.112480514
0001d0 1d b5 eb 3e 14 a1 34 3d da 81 ca 3c 8d 3e b6 3c
       0.46036616 0.04409893 0.024720121 0.022246623
0001e0 b2 f1 01 bc c4 1e 09 3f d5 15 be 3d f2 42 5c 3d
       -0.00793116 0.5356257 0.09281508 0.05377478
0001f0 ee 4b 02 3f 04 f9 26 3f b3 42 b2 3d 26 ba 28 3f
       0.5089711 0.6522372 0.08704128 0.6590904
000200 14 ce 15 bf 48 2d ba be 8a e5 2c 3e f4 86 eb be
       -0.58517575 -0.36362672 0.16884437 -0.460014
000210 27 20 21 3f ef 73 8e bd 70 59 e6 bc d6 4a 3c bf
       0.62939686 -0.06955706 -0.028118819 -0.7355169
000220 5c 9a 1f be c9 cf 57 bf 8a fc 69 be c8 1a 33 3f
       -0.15586227 -0.8430143 -0.22850242 0.6996274
000230 00 8e 9b 3e 12 4e 66 3f 79 12 1b 3f bb ea 42 3e
       0.30381775 0.89962876 0.6057506 0.19034855
000240 ec b8 79 bf 29 b4 00 3f 33 28 51 be be 7b b1 3e
       -0.97547793 0.502749 -0.20425491 0.3466472
000250 24 8d 0f bf 0a 62 2b 3e 15 f1 3b 3e fb ee 74 bf
       -0.5607474 0.16736618 0.18353684 -0.95677155
000260 db 15 db be 78 a1 1c 3e cd 79 ad be f6 05 a1 3e
       -0.42790112 0.1529597 -0.3388199 0.3144986
000270 26 6d 8a 3e 6c e5 91 3e b2 a7 45 3e dc 47 1b 3e
       0.270364 0.28495347 0.19302252 0.15164131
000280 0f b8 ca 3d d1 d2 07 be 48 0d 5b be ec 68 06 bf
       0.09898388 -0.13264014 -0.21391785 -0.5250385
000290 f0 cf f8 be 28 e0 5f 3f 67 dc c1 bd 26 c8 92 3e
       -0.48596144 0.8745141 -0.094658665 0.28668326
0002a0 0f 14 11 3f 0a 95 03 bf 4d c7 98 be 04 03 a7 3e
       0.5667123 -0.5139929 -0.29839554 0.32619488
0002b0 ba 54 83 be 59 b3 4e 3f 3f a1 48 3f 10 07 a4 bd
       -0.2565058 0.8074241 0.7837104 -0.080091596
0002c0 2f 33 28 3f 44 83 ec 3e fa 5b 80 bd d7 21 89 be
       0.657031 0.46193898 -0.06267543 -0.2678363
0002d0 e7 67 07 3f a4 ff de 3e f5 e4 a9 bd 97 b3 bb 3e
       0.5289292 0.43554413 -0.08295623 0.36660454
0002e0 a0 c1 af bf e2 10 3f bf b8 b7 23 be 3b ac 92 3e
       -1.3730965 -0.74635136 -0.15988052 0.28647026
0002f0 94 1f 83 bf 13 84 b4 3e c9 53 11 3f 67 68 04 3e
       -1.0244012 0.35257015 0.5676847 0.12930451
000300 83 f7 23 bd 08 79 4c 3f 6b 26 f2 be bd 28 fc bd
       -0.040030967 0.7987218 -0.47294936 -0.12312458
000310 85 69 db 3e 6c 80 70 be 43 0f 35 be a4 c8 f4 3d
       0.42853943 -0.23486489 -0.17681603 0.11952332
000320 31 d4 67 be eb 41 5a bd e3 3c b5 be 93 74 0f 3d
       -0.22639538 -0.05328552 -0.35398015 0.035023283
000330 6c 88 ab bd c8 61 6b be f7 ba ba bd 83 5a ca bd
       -0.0837563 -0.2298652 -0.09117692 -0.09880545
000340 3e 9f ea 3d 0e 0a 31 3e 94 6c 36 3d 9a 52 9a be
       0.11456154 0.17288992 0.044537142 -0.30141145
000350 8e 08 1a bf fe a7 da 3e cc 3a 97 be a7 ef c6 be
       -0.60169303 0.42706293 -0.29537046 -0.38854715
000360 8f 6b ae be 2b 06 33 3f 5e 66 f9 be c2 85 4a bf
       -0.34066436 0.69931287 -0.48710912 -0.7911035
000370 2a d1 48 be d6 1c 7b bd 83 ff e5 3e f5 0c fa be
       -0.1961104 -0.061306797 0.44921502 -0.4883801
000380 fe 11 9f 3e e6 62 45 3f df 1a 3d be 74 24 a6 bd
       0.31068414 0.7710403 -0.18467282 -0.08112422
000390 8f d2 aa be fc 66 ca be 4c c2 e9 3e 29 03 1e 3f
       -0.33363768 -0.39531696 0.4565605 0.6172357
0003a0 87 e1 a4 be 50 b4 6f 3e 07 2c 21 be 85 e6 0c bf
       -0.32203314 0.23408628 -0.15739451 -0.55039245
0003b0 22 1e 14 be 05 9e 3e bf b7 12 62 3e 6d 2f 27 3f
       -0.1446462 -0.7445987 0.22077452 0.6530674
0003c0 67 ba c3 3e 77 1e 46 3f 84 74 7f 3e 01 85 0b 3f
       0.3822815 0.77390236 0.24946791 0.5449982
0003d0 9c df 9d 3c 6d 0e 2c 3f fc 71 45 be 31 4a 90 39
       0.019271664 0.6720951 -0.19281763 0.00027521097
0003e0 17 8b 2e 3e 75 6d 8d be 70 44 f7 3e a3 48 f8 bc
       0.17045246 -0.27622572 0.482944 -0.030308073
0003f0 a3 c4 22 bf 34 8f 63 3f b4 ca f8 3e 00 1f b2 be
       -0.63581294 0.88890386 0.4859215 -0.34789276

bias f4 [256]
000000 14 ea d5 be c8 05 1c bf 76 e2 b6 be 74 a7 82 bd
       -0.4178015 -0.6094632 -0.3571965 -0.063795954
000010 ae e7 7d be df 1c d9 be e5 c7 af be 03 af 2e be
       -0.2479541 -0.4240484 -0.34332195 -0.17058949
000020 b6 63 f9 3d db a9 be be 63 0d 0e bf dd a4 04 bf
       0.121772215 -0.37238964 -0.55489177 -0.5181406
000030 26 cd 42 3d ca 18 06 be 91 be ee 3e 1d 87 9f be
       0.047558926 -0.13095394 0.46629766 -0.3115777
000040 dc af 0b be f5 8c d9 be 54 e4 30 be ba cb f2 bd
       -0.13641304 -0.42490354 -0.172746 -0.11855264
000050 75 9a e1 be df 66 1c 3e 77 b8 f2 be da 3b 23 be
       -0.44063154 0.15273617 -0.4740636 -0.159408
000060 6f a3 9c be 68 82 af bc 2b 47 97 be b9 81 2d be
       -0.3059344 -0.021424487 -0.29546484 -0.16944017
000070 4a 65 9d bf 60 2c ba be 1c 68 8e be 3f 4a 9c be
       -1.2296536 -0.3636198 -0.27813804 -0.30525395
000080 10 a4 62 be cc 1c 6e be 5b 22 1b 3e 3d 39 cf be
       -0.22132897 -0.23253173 0.15149824 -0.40473357
000090 09 86 ea bd 1c a7 04 be c2 da 86 bf 9d d5 30 bf
       -0.114513464 -0.12954372 -1.053551 -0.6907595
0000a0 cc 25 a7 be 27 a3 2a 3e 29 fd 6a be 49 c1 1d 3d
       -0.32646024 0.166638 -0.22948135 0.03851441
0000b0 e0 16 ba be cc ad a9 bd 8f b9 ab 3c ef ae 9f 3e
       -0.36345577 -0.08285102 0.020962505 0.3118815
0000c0 fd 21 60 bf ce 0f a0 3f cb 36 d5 be 4d f3 b7 3e
       -0.8755186 1.2504823 -0.41643366 0.3592781
0000d0 7e 0c db be 88 ab a5 3e c1 54 ce bd 08 ec fc be
       -0.42782968 0.3235743 -0.10074759 -0.49398828
0000e0 6b 65 0f be 9f 1c 06 bf 7a d2 c4 be 28 2f 5c bf
       -0.14003532 -0.5238742 -0.3844183 -0.86009455
0000f0 f5 b4 18 bf ff b3 26 bf af 7c 8b bd ee 00 b7 3f
       -0.5965112 -0.651184 -0.06810891 1.4297159
000100 d0 a8 1f 3f aa 8d d7 be ed 1b 9f bd 0a 81 c1 bd
       0.6236696 -0.4210027 -0.07768998 -0.094484404
000110 bf cd 56 3e 7b ad ab be c1 1a ca bc a2 b4 3c bf
       0.20976923 -0.33530793 -0.02467096 -0.73713124
000120 5e 3e df bd 94 ae 9e be f6 92 50 3e 13 37 20 3f
       -0.109005675 -0.30992568 0.20368561 0.62584037
000130 58 a1 9d be 08 d1 4f be 3b c8 f4 bd 7c db 43 bd
       -0.30787158 -0.20294583 -0.119522534 -0.04781674
000140 7e 6b e3 be 24 f6 70 be 53 61 20 3d f0 14 31 3f
       -0.44417948 -0.23531395 0.039155316 0.69172573
000150 7f da b2 bb 06 65 b9 3f e0 6b 78 3e 6f 1c 2e be
       -0.0054581757 1.4483955 0.24259901 -0.17003034
000160 49 e6 cb 3e 08 41 ca be 60 52 46 3f fb fe c7 be
       0.3982413 -0.3950274 0.77469444 -0.39061722
000170 1f cd 13 bf 31 cd 82 3e 46 8e 36 bc 12 73 bd be
       -0.57734865 0.25547174 -0.011142319 -0.37001854
000180 6f e3 5b be 68 89 97 3f 67 64 66 bf a1 7f f6 be
       -0.21473478 1.1838808 -0.8999695 -0.48144248
000190 cb 70 8f be 19 e2 8e be af 9d bc 3d 81 1a e1 3c
       -0.28015742 -0.27906874 0.09209763 0.027478458
0001a0 31 2b af be 4b 88 5f 3d 62 00 f0 bd fd 32 b4 be
       -0.3421264 0.05457334 -0.11718823 -0.3519515
0001b0 2c 16 ba be 60 b1 18 be 4d 71 2f bf 62 a9 05 bf
       -0.3634504 -0.14911413 -0.6853226 -0.5221158
0001c0 cc 1e ab be 38 8f 97 3e 66 49 fd 3e 99 b0 9c be
       -0.33421934 0.29601455 0.4947006 -0.30603483
0001d0 92 a2 a6 be 1c df 1e bf 77 aa 05 bf a1 35 b8 be
       -0.32545906 -0.6205919 -0.52213234 -0.35978416
0001e0 f4 b2 dc 3e e9 be b1 be 19 2d 89 3f 4c ce 67 bd
       0.4310528 -0.34715965 1.0716888 -0.056593224
0001f0 3a 4b 81 be ed a3 06 3f 14 64 a0 3e f0 5a ab be
       -0.25252706 0.5259388 0.31326354 -0.33467817
000200 dd 60 03 be c5 b6 eb be 41 22 8c be c0 b0 ec be
       -0.12829919 -0.4603788 -0.27369884 -0.462286
000210 b0 ef a0 be 80 a4 05 be b2 8d ba be c2 6c ac bd
       -0.31432867 -0.13051033 -0.3643623 -0.084191814
000220 dc 4c be bd 50 c8 e1 be df cd 8e be a9 31 eb be
       -0.092920035 -0.4409814 -0.27891442 -0.45936325
000230 d5 e1 6e be 14 ee bf be 53 5a b6 be f3 9c a1 be
       -0.23328336 -0.37486327 -0.35615787 -0.31565055
000240 8d 02 01 bf 5b 13 25 bf 68 94 32 bf 50 2a c8 bd
       -0.5039452 -0.6448266 -0.697577 -0.097736955
000250 86 59 71 3e b1 c1 0c bf 56 26 55 3e d6 07 81 be
       0.23569307 -0.5498305 0.20815405 -0.2520129
000260 d6 8a b8 bd 08 d3 8a be 84 75 9f be a3 29 91 3d
       -0.09010856 -0.2711413 -0.31144345 0.0708802
000270 13 3c d2 be a4 24 bf be e9 8c c6 be 83 46 16 bf
       -0.41061458 -0.37332642 -0.3877938 -0.5870134
000280 19 13 95 be 52 74 08 be 87 aa 49 be e0 76 ad be
       -0.29116133 -0.13325623 -0.19693957 -0.33879757
000290 b1 82 ac 3d 8f 71 3f be 4a 10 8d bf 8b a4 60 3e
       0.08423365 -0.18695663 -1.1020596 0.21937768
0002a0 f4 b8 80 bf d2 ca 0d be 56 c0 a9 be 97 bd 88 bf
       -1.0056443 -0.13846901 -0.33154553 -1.0682858
0002b0 4d aa d7 bd 7f b5 93 be ab f2 25 3e 4d ff d6 be
       -0.10530529 -0.28849408 0.16205852 -0.41991654
0002c0 b6 cf df bd 83 a7 87 be 2c b6 5b bd 67 e0 25 3e
       -0.109282896 -0.2649499 -0.05364053 0.16198884
0002d0 58 6f 2f bd f2 d9 98 bd 04 21 93 be 9f df 77 be
       -0.042830795 -0.07463445 -0.28736126 -0.24206398
0002e0 22 fa af be 23 94 3b 3e 49 4d 32 be f9 5b 08 bf
       -0.34370524 0.18318228 -0.17412294 -0.5326534
0002f0 bf 8d ae 3e a5 fe b6 bd 9c 81 85 bf 1b fb 1b bf
       0.3409252 -0.08935288 -1.0430179 -0.6093003
000300 f0 e8 79 be cb 77 f2 be 9c 5b ea be 2f 41 c5 be
       -0.24405265 -0.4735702 -0.45773017 -0.38526294
000310 24 f1 2b bf 18 4e 34 be 95 e6 9e bf e3 f9 90 bb
       -0.67164826 -0.17607915 -1.2414118 -0.00442432
000320 fb f5 a8 3e 2b d8 3c be 58 47 49 3e de 0d cc be
       0.33000168 -0.18441837 0.19656122 -0.3985433
000330 87 e3 de be 52 3d 08 bf ff aa ee 3d bf 57 2f bf
       -0.43532965 -0.5321857 0.11653709 -0.68493265
000340 d5 6c 68 bf 59 15 04 bf 45 34 45 bf 44 d0 01 be
       -0.90791065 -0.51595074 -0.7703288 -0.12677103
000350 19 08 b4 3e 97 15 21 bf 36 29 ad be fb c2 48 3f
       0.35162428 -0.6292357 -0.33820504 0.78422517
000360 03 f3 e8 be 27 9e 71 bf 25 d5 7f be ed 7a 8d be
       -0.45497903 -0.94381946 -0.24983652 -0.27632847
000370 98 21 54 3d ee 75 4b bf ef dc 11 be 0f 93 aa be
       0.05178985 -0.7947682 -0.14244436 -0.33315322
000380 e4 78 8c be 69 ed 56 bd 37 d5 c0 be 43 52 be be
       -0.27435982 -0.052472506 -0.3766267 -0.37172136
000390 b1 1b d8 be 68 5e 7a 3e 57 38 5d 3d d4 56 6c bf
       -0.42208627 0.24450076 0.054008808 -0.9231999
0003a0 bb ab bc be 9c ea d3 bd 69 bc ec bd 22 1f 8b bd
       -0.3684977 -0.103474826 -0.11559374 -0.067930475
0003b0 85 fc 92 be cf b1 59 3f 28 0b 64 bd b2 bc 0b be
       -0.28708282 0.8503694 -0.055674702 -0.136462
0003c0 24 d5 53 bf e5 97 e0 be 36 e1 0a 3f b1 39 b5 be
       -0.827471 -0.43865886 0.54249895 -0.35395578
0003d0 8a 84 df 3e 30 41 00 bf 32 48 88 be 32 aa a5 be
       0.43655807 -0.5009947 -0.2661758 -0.3235641
0003e0 be 90 73 bf a4 f4 06 bf 2b 6f 06 bf 59 d9 05 3e
       -0.95142734 -0.5271704 -0.5251338 0.13071193
0003f0 23 c4 25 3e 45 11 9a be ac e9 8f be 64 3b 81 bf
       0.16188101 -0.300913 -0.28107965 -1.009625

weight f4 [3, 256]
000000 34 0f 46 bc 9d fb b9 40 2d aa 1e bd 16 7c 0f be
       -0.012088586 5.8119645 -0.03873651 -0.14012179
000010 90 da c7 be 0a 42 9f bd b6 44 58 3d 98 c3 a4 bd
       -0.39033937 -0.07776268 0.052799903 -0.08045119
000020 8e e7 b5 be 28 c0 cd 3e 2c 7a 02 bd 71 a4 35 bf
       -0.35528225 0.40185666 -0.031854793 -0.7095404
000030 92 cc ca be 61 ef b7 bd 95 a8 8d 3d e8 b0 3e bf
       -0.396092 -0.08981205 0.0691692 -0.7448869
000040 0e 22 68 bf 51 37 8f be 50 4c 98 bb 61 2f 8e 3e
       -0.90676963 -0.2797189 -0.004647769 0.27770522
000050 fc ff 9b 3c b0 de a9 be b7 dd 30 bf e4 8f 58 bf
       0.019042961 -0.3317771 -0.6908831 -0.8459456
000060 cb 5a a1 bb 3f df 8a 3c aa b9 3a bc e4 b6 2f bc
       -0.0049241534 0.016952155 -0.011396805 -0.010724757
000070 4b 66 1f 40 a9 73 22 bf 6c f7 0c bd a1 70 b4 3c
       2.4906185 -0.63457733 -0.034415647 0.022026362
000080 da df 2f 3b f2 bd 30 be b7 10 8c 3e 7c 49 4d be
       0.0026836307 -0.17259958 0.27356502 -0.20047563
000090 e7 10 4b bb 3d 5f 11 3d 8b ca 02 3d 62 6e b6 bd
       -0.0030985416 0.035491217 0.03193144 -0.089077726
0000a0 51 80 4e bc b5 5a 73 3e dc 65 56 be d9 ed 22 be
       -0.012603835 0.2376507 -0.20937294 -0.15911044
0000b0 a5 83 1d be 5a 9c db bd d1 0a 44 be a6 87 32 3f
       -0.1538225 -0.10723181 -0.19144751 0.69738233
0000c0 b6 6b 65 3f 8e b9 df 3c 2f 05 c5 ba d8 e3 67 3e
       0.8961748 0.027310159 -0.0015031452 0.22645509
0000d0 7a 00 4c 3e 69 26 9c 3e 41 3e 0a be f4 22 b0 3c
       0.19922057 0.30498055 -0.1350031 0.021501042
0000e0 39 f2 6f be 13 32 62 be f3 a2 b0 bc 51 5e 57 bc
       -0.23432244 -0.22089414 -0.021562075 -0.013145045
0000f0 a3 23 a7 3e 52 9b 3b be f0 67 44 bd 67 0c 99 3e
       0.32644376 -0.18320969 -0.047950685 0.29892275
000100 71 c8 0f 3f 3a 2f e0 be f3 be 0f be f0 1a e5 be
       0.56165224 -0.4378603 -0.14037685 -0.44747114
000110 81 3d 57 3e 12 15 21 3e 5f eb f1 3e cc d8 7f bd
       0.21019556 0.15730694 0.47249886 -0.062462613
000120 3f f7 b2 3e 9b 04 17 3c 28 f1 75 3c 81 01 a4 3e
       0.3495426 0.009217407 0.015011109 0.32032397
000130 42 10 01 be 60 ab 32 bf 0f b6 77 be 13 be ac bd
       -0.12603858 -0.6979275 -0.24190544 -0.08434691
000140 1d 3b e1 3b 13 fe c8 3b 77 9a 29 be 67 88 91 3e
       0.006873502 0.0061338036 -0.1656283 0.2842438
000150 4d 56 ad be 95 56 20 3e 3f 68 8a be 4f f2 cc bc
       -0.33854905 0.15658028 -0.27032658 -0.025017885
000160 9d ad 84 3e 9e eb 99 bc 59 7a 92 3e f3 ce e6 3d
       0.25913706 -0.018789109 0.2860897 0.11269941
000170 aa 86 13 be d4 a2 1f 3f 2e 91 32 bf d3 be f5 be
       -0.14406839 0.6235783 -0.69752777 -0.4799715
000180 b4 8f ff bc 0a 1e bb 3c b0 18 91 40 c8 b9 d9 be
       -0.031196453 0.022841472 4.5342636 -0.42524552
000190 7c 52 6c 3d d3 2b 42 bf 65 e1 3d 3e b2 20 9f bd
       0.05769585 -0.7584812 0.18543012 -0.07769908
0001a0 ec cb db 3c ed 92 7a 3e 8f 1f a5 3d 75 c1 06 bb
       0.026830636 0.2447011 0.0806266 -0.0020562087
0001b0 e8 35 ed 3b 40 33 b3 be e0 b9 b5 bd ca 96 8a bd
       0.007239092 -0.35000038 -0.088733435 -0.06767042
0001c0 cb fa 67 be 0a cb 58 3c a6 b6 69 3e 7e da b0 bc
       -0.22654264 0.013232002 0.22823581 -0.02158856
0001d0 1f 08 e4 be 92 1b 45 3f 51 d7 60 be 0d 4e b2 3d
       -0.44537446 0.76995194 -0.21957137 0.08706293
0001e0 80 d7 81 3e 7a 2c de be 5c 78 56 3e 40 91 31 be
       0.25359726 -0.43393308 0.20944351 -0.17340565
0001f0 e8 44 74 3d b1 bf c5 3e 69 74 88 3e 01 db e4 3c
       0.059636027 0.3862281 0.26651314 0.02793646
000200 45 db 91 3d 23 12 38 3d e9 ca 03 bf d2 f2 23 3e
       0.071219005 0.04493917 -0.5148149 0.16010597
000210 69 82 eb 3d 42 1b da bd 20 3a 33 bd 3a c0 91 3e
       0.11499483 -0.1064973 -0.043756604 0.2846697
000220 a6 da b3 3d 00 f9 59 be 7b 5f db bd 35 d3 06 3e
       0.08781938 -0.21286392 -0.10711571 0.13166507
000230 20 5a 2c bd 12 30 aa bb 0f 86 3d 3e 13 23 bf 3f
       -0.042078137 -0.0051937187 0.1850817 1.4932579
000240 7a 05 45 3f e9 f0 59 3c ad 3f 02 3c 6e 05 13 be
       0.7696148 0.013302066 0.007949752 -0.1435754
000250 1f 0d d3 3d 11 d0 2f be ee a1 9c 3e d0 8c 57 3e
       0.10305237 -0.17169215 0.30592293 0.2104981
000260 77 4f b9 be 92 5e 82 bc 44 dc 49 39 c6 e7 d7 be
       -0.3619344 -0.015914235 0.00019250909 -0.42169017
000270 67 83 78 be 2b a9 cf 3e 9c f7 0f bf e4 48 18 bf
       -0.24268876 0.40558752 -0.56237197 -0.5948622
000280 ad ad 93 3b 4a 20 a7 3c 6e 47 a6 3e b1 84 11 3b
       0.0045067878 0.020401139 0.32476372 0.0022204334
000290 fb a0 bc bc 5c 08 28 3d 93 1b 40 bd 44 02 1b 3c
       -0.02302598 0.041023597 -0.046901297 0.009460989
0002a0 ea 21 85 40 b1 44 91 3b a5 55 dc 3b 07 4f 8b 3f
       4.16039 0.0044332375 0.006724077 1.0883492
0002b0 af 65 cc be 26 a7 36 bd e1 e9 d4 3e c5 69 c6 be
       -0.39921328 -0.044593 0.41584685 -0.3875257
0002c0 7c 44 d8 be 7a 0f ef 3d 9a 15 46 3d fd 0a 0f 3c
       -0.4223975 0.11672874 0.048360445 0.008730647
0002d0 74 1d dd be e7 bd 10 be 16 dc 8c 3c 8d 1f 6f be
       -0.43186533 -0.14134942 0.017194789 -0.2335188
0002e0 97 25 64 bc 52 5e d4 be d6 99 9c be 8c 33 36 bf
       -0.013924978 -0.4147821 -0.30586118 -0.71172404
0002f0 2e 9a 0a be 0b b7 3c be c0 cb a1 bd 43 d7 83 be
       -0.13535377 -0.184292 -0.0790019 -0.2575017
000300 ed 2e 48 3d 80 7b 96 bd 6b a8 8c be 5b bc b9 bd
       0.048872877 -0.073477745 -0.27472243 -0.09069129
000310 4b 55 30 bf 88 a4 9f 3e 59 c8 6f 3d 55 82 bb be
       -0.68880147 0.31180215 0.058540676 -0.36622873
000320 75 b9 87 3d ec f8 51 bf 93 8b 17 3f 77 5f ba 3c
       0.0662717 -0.8202045 0.5919735 0.0227506
000330 9a 69 62 be db af fc 3d 57 f6 32 bc c7 cd a5 3c
       -0.22110596 0.12338229 -0.01092299 0.020239724
000340 51 4e 01 3c 33 77 b3 3d 24 89 f6 3e 9c cd 65 bf
       0.007892207 0.0876297 0.48151505 -0.8976686
000350 59 0f 9b 3e e0 ee 2f be 6e a0 24 bd 84 ae 42 bd
       0.30285147 -0.17180967 -0.04019206 -0.047529712
000360 59 45 aa 3d ca 7e 43 40 4d 46 32 be 5c 58 e6 be
       0.08314008 3.0546136 -0.1740963 -0.44989288
000370 6a 57 93 be 19 94 84 3d 1d 1c 0a bc 66 db 8f 3f
       -0.2877763 0.0647356 -0.008429554 1.123883
000380 80 e9 93 3c 84 30 63 3d 56 65 1c 3d 26 d7 30 bf
       0.018055677 0.05546619 0.03818258 -0.6907829
000390 9b 59 8d bd ae 7d ff 3d 01 aa 64 be b4 83 83 3c
       -0.069018565 0.124751434 -0.22330476 0.016054012
0003a0 17 bd 94 3c 1c 57 8f 3e 09 78 95 3d 2c 76 cf bc
       0.018156571 0.27996147 0.072982855 -0.025324903
0003b0 1b 2e b8 3e b3 2b 34 3e 5a b8 af 3c 44 bc aa b8
       0.35972676 0.17594795 0.02145021 -8.141299e-05
0003c0 e1 5a 13 40 0f e8 2c 3e e9 1f 0b 3f ae 4d 18 bf
       2.3024218 0.16885398 0.54345566 -0.5949353
0003d0 00 91 e8 3d cb c1 5b bd c5 ba d4 3b b0 d5 83 3c
       0.113557816 -0.053651612 0.006491991 0.016093105
0003e0 e9 0c 60 40 f6 df 64 be d9 b2 1c be 4c 74 1d 3f
       3.500788 -0.2235106 -0.153026 0.6150558
0003f0 b9 ff b9 3d 79 72 92 3c da 99 61 be 7e 9e f8 3d
       0.09081978 0.01787685 -0.22031346 0.12139605

bias f4 [3]
000000 53 64 06 3f ee d7 32 bf 9a 83 09 bf
       0.5249683 -0.6986073 -0.53716433
